…
ker\model3.py
2023-03-19 13:12:19.819416: I tensorflow/core/platform/cpu_feature_guard.cc:193] This TensorFlow binary is optimized with oneAPI Deep Neural Network Library (oneDNN) to use the following CPU instructions in performance-critical operations:  AVX AVX2
To enable them in other operations, rebuild TensorFlow with the appropriate compiler flags.
Model: "sequential"
_________________________________________________________________
 Layer (type)                Output Shape              Param #
=================================================================
 dense (Dense)               (None, 128)               256

 dense_1 (Dense)             (None, 64)                8256

 dense_2 (Dense)             (None, 32)                2080

 dense_3 (Dense)             (None, 16)                528

 dense_4 (Dense)             (None, 8)                 136

 dense_5 (Dense)             (None, 1)                 9

=================================================================
Total params: 11,265
Trainable params: 11,265
Non-trainable params: 0
_________________________________________________________________
None
Epoch 1/50
8/8 [==============================] - 1s 30ms/step - loss: 0.6857 - accuracy: 0.8431 - val_loss: 0.6648 - val_accuracy: 0.9062
Epoch 2/50
8/8 [==============================] - 0s 5ms/step - loss: 0.6672 - accuracy: 0.8431 - val_loss: 0.6408 - val_accuracy: 0.9062
…
